data/model.tflite (tflite, 26536 bytes, 6 tensors)

arith.constant f4 [70]
-1.8060634 0.84655553 -2.156724 -2.4168441 -2.8625789 -1.5616946 1.4759283 0.22696757
-3.2046998 -0.18490893 -0.7947099 0.47952482 0.6349774 -0.58982474 0.72663414 0.502369
-0.14524442 0.95437014 -0.3308373 -0.031087073 -0.39319995 0.43482506 2.0250723 -1.5321395
-0.28400514 -0.33106884 0.45759764 -1.7826167 -1.9735868 -0.3269899 -2.4438407 -1.7146081
0.8697525 0.092650294 -0.02469213 1.1356559 0.3494372 1.5119673 -0.5632726 -0.83120257
-1.2255814 -1.3444505 -0.052998204 -0.10351248 0.051441457 1.3614415 -1.3887393 -1.5241301
-0.5437015 0.044861503 -0.6457231 -0.61285263 -0.76234967 0.057137363 -0.89264995 -1.9163281
0.49302694 -0.38414395 -0.21887437 -1.329549 0.20426106 1.1712275 -0.8748274 -1.5976042
-1.0673883 -2.349208 -0.91936 -1.2728662 -2.0617425 -1.6161301
00000000: 162d e7bf ddb7 583f c407 0ac0 93ad 1ac0
00000010: 7e34 37c0 9ce5 c7bf 38eb bc3f 306a 683e
00000020: cd19 4dc0 c458 3dbe 1c72 4bbf 4784 f53e
00000030: e18d 223f c1fe 16bf b204 3a3f 419b 003f
00000040: f4ba 14be 9a51 743f 8263 a9be 51aa febc
00000050: 8151 c9be 64a1 de3e c99a 0140 261d c4bf
00000060: 1f69 91be db81 a9be 3d4a ea3e c92c e4bf
00000070: 7e9e fcbf 386b a7be e367 1cc0 4778 dbbf
00000080: 1aa8 5e3f 70bf bd3d 2647 cabc 2c5d 913f
00000090: 6fe9 b23e 2588 c13f a232 10bf b1c9 54bf
000000a0: dadf 9cbf f416 acbf a514 59bd 5afe d3bd
000000b0: 47b4 523d b743 ae3f 36c2 b1bf b216 c3bf
000000c0: 0630 0bbf b2c0 373d 1c4e 25bf e9e3 1cbf
000000d0: 5929 43bf de08 6a3d b584 64bf 3d4a f5bf
000000e0: 076e fc3e 84ae c4be 9a20 60be a92e aabf
000000f0: d029 513e c8ea 953f b0f4 5fbf 4b7e ccbf
00000100: 2ea0 88bf 6d59 16c0 2d5b 6bbf 48ed a2bf
00000110: 97f3 03c0 5add cebf

arith.constant1 f4 [32]
0.30248287 -0.25335637 0.86063725 -2.534205 -0.5682202 0.43399516 0.44206014 1.540404
0.5935012 1.6553218 -0.8370676 -1.0145516 -0.57825917 0.09040889 1.3521382 0.65936965
-0.2196681 0.011898927 0.13405672 0.37082848 1.804894 0.5690302 -0.0182687 1.5699649
2.1170347 2.0608861 -0.020229258 0.497906 1.0443205 0.7394066 1.4651687 -0.8664161
00000000: 09df 9a3e edb7 81be b952 5c3f 6a30 22c0
00000010: e176 11bf 9d34 de3e b555 e23e f52b c53f
00000020: b2ef 173f 96e1 d33f 104a 56bf d4dc 81bf
00000030: cb08 14bf 4c28 b93d dd12 ad3f 73cc 283f
00000040: adf0 60be b8f3 423c 2a46 093e 3bdd bd3e
00000050: c406 e73f f7ab 113f 3ea8 95bc 9cf4 c83f
00000060: 7f7d 0740 8fe5 0340 d4b7 a5bc 89ed fe3e
00000070: 4bac 853f c049 3d3f a68a bb3f 72cd 5dbf

arith.constant2 f4 [70, 32]
-6.014125 0.08738922 0.026097061 0.77275395 0.27764672 -0.13846779 -4.868718 -1.7324204
-1.589059 0.31906453 0.85808486 -0.43255597 -0.31905308 0.67547226 0.35520542 -0.697386
-0.45574322 -1.4526602 -0.0083786 -0.9852909 -0.5324369 -1.3956178 0.07909944 0.87715775
-6.054084 -0.73981297 -7.711864 0.024726784 -1.4340137 -10.228859 0.05749115 0.48860857
-1.0910003 -0.44893605 -0.18003166 0.07279768 -0.7061765 -1.1346159 -2.1558084 1.2692466
1.8638096 0.6989556 0.60229176 1.0943778 -1.3923746 0.26371893 1.0212134 -1.3640478
1.1523474 -1.8138595 0.5268816 -0.82930994 1.0466305 -2.4700005 -0.15358102 -0.28026137
-2.5275192 0.46680963 -3.480687 -0.3472128 -2.0122247 -2.1851947 0.19677348 -3.4029403
-6.545378 1.4883099 0.5795919 1.8697519 0.73523754 0.41752395 -2.4081125 0.46330196
-5.4797525 -0.2553639 -0.5023027 -0.017359952 0.4508623 -0.7437003 -1.2766266 -0.5833898
0.1884218 -9.956997 0.24905433 0.31780562 -0.87941635 -0.62543344 0.29169816 0.29211903
-2.398696 -1.1210746 0.5737491 0.022642452 -0.41383237 -4.409862 0.5037293 -0.2341005
-2.9745183 -0.85632855 0.004258845 0.6783237 0.8667437 -1.9444212 -2.2622533 -2.1255965
0.11389374 -2.0605648 0.37133178 -0.2678791 -0.22676422 0.36948168 1.623091 -0.49510816
1.5714285 1.9923402 -0.11723893 -1.2964587 -0.5289441 -0.079357915 -5.24511 -0.9498459
0.47952008 -1.3080091 -3.1166751 -3.2428887 0.3066867 -4.322508 -0.20033377 0.9657686
-0.5102849 1.4590089 0.17237705 0.22302368 0.6990023 -0.70610094 -0.09728578 -2.539454
-2.09326 -2.2443588 -0.21726121 0.79719794 -0.6237087 0.42308053 -1.4471232 -12.575423
0.029516222 -0.20925324 -1.9734052 0.6752343 0.044415653 -1.1397113 -5.1981506 -2.6999629
-0.29102057 -5.756112 1.8121003 -4.3490896 -0.50876564 -1.2451847 0.014501645 0.02288833
-0.20178053 0.5821238 -1.2824513 -2.7953908 -5.1366725 -0.77083606 0.4105227 -2.3146222
0.45369378 -1.8726037 -0.69549716 0.44263837 -0.95978737 -3.65369 -0.32025996 -3.534809
0.46344543 0.24777697 -4.018236 1.0376304 -0.43044928 0.34827992 -0.7282921 -1.5469468
0.09566765 -0.39349338 1.6882545 -1.8544953 -2.6777947 -0.26064318 0.5006053 0.04166257
-0.024130128 -1.2435222 1.7662604 -2.9451914 -0.12980765 -1.5114082 -1.6127768 -3.014608
-0.36864945 1.5965623 -1.8300214 0.8326391 -1.4725825 -4.1143265 0.86916006 -0.3359031
-0.16667625 -0.9870398 -3.0040681 1.177557 -0.17658128 -0.5552401 -1.2205771 0.6486673
0.03754638 -1.7933444 -0.43940708 0.72548956 1.1537988 0.26212186 1.591851 -0.615125
0.40282676 0.5610511 -0.20377547 0.6890199 -4.003434 -1.7162873 0.56193256 0.22021315
0.77981675 -0.8755335 -1.624517 -1.6149901 -3.2528949 -1.2018815 -0.5682716 -3.767842
-0.30688664 0.080261484 -0.9297264 1.0608333 -0.3139027 1.2880616 -7.2731094 -0.8237405
0.3855531 -3.3427913 -3.4457247 -1.786507 0.5199337 -1.0359544 0.2978529 -1.3229285
00000000: b673 c0c0 1ff9 b23d 81c9 d53c 34d3 453f
00000010: b627 8e3e 80ca 0dbe 8acc 9bc0 f4bf ddbf
00000020: 4966 cbbf 6d5c a33e 73ab 5b3f fa77 ddbe
00000030: ed5a a3be c0eb 2c3f 7cdd b53e e487 32bf
00000040: 2d57 e9be c5f0 b9bf 6546 09bc 063c 7cbf
00000050: c94d 08bf 9ba3 b2bf e3fe a13d 698d 603f
00000060: 0ebb c1c0 6264 3dbf 97c7 f6c0 d38f ca3c
00000070: c38d b7bf 68a9 23c1 d77b 6b3d e72a fa3e
00000080: e6a5 8bbf f2da e5be 385a 38be f316 953d
00000090: fcc7 34bf 183b 91bf c4f8 09c0 ac76 a23f
000000a0: 5091 ee3f c1ee 323f cb2f 1a3f 9214 8c3f
000000b0: 5539 b2bf 2b06 873e 1fb7 823f 1e99 aebf
000000c0: 1f80 933f 8c2c e8bf b6e1 063f a84d 54bf
000000d0: fdf7 853f 7d14 1ec0 5844 1dbe 6b7e 8fbe
000000e0: e0c2 21c0 ac01 ef3e 93c3 5ec0 e0c5 b1be
000000f0: 4ac8 00c0 3bda 0bc0 fd7e 493e c6c9 59c0
00000100: bd73 d1c0 f080 be3f 2260 143f 0854 ef3f
00000110: 8738 3c3f b3c5 d53e 841e 1ac0 ea35 ed3e
00000120: 225a afc0 0fbf 82be e996 00bf 7536 8ebc
00000130: 6cd7 e63e 2563 3ebf 8068 a3bf 0959 15bf
00000140: a5f1 403e dc4f 1fc1 1908 7f3e 6bb7 a23e
00000150: 6e21 61bf 681c 20bf 7659 953e a090 953e
00000160: 3c84 19c0 5f7f 8fbf 39e1 123f aa7c b93c
00000170: d6e1 d3be 971d 8dc0 67f4 003f 0bb8 6fbe
00000180: 825e 3ec0 5938 5bbf c88d 8b3b 9fa6 2d3f
00000190: eae2 5d3f cbe2 f8bf c2c8 10c0 c609 08c0
000001a0: 1f41 e93d 4be0 03c0 331f be3e 7327 89be
000001b0: e134 68be b42c bd3e 72c1 cf3f d17e fdbe
000001c0: 9224 c93f 0105 ff3f f71a f0bd 5cf2 a5bf
000001d0: e168 07bf 6786 a2bd f1d7 a7c0 1a29 73bf
000001e0: a883 f53e d86c a7bf 9b77 47c0 7d8b 4fc0
000001f0: 0a06 9d3e fc51 8ac0 4c24 4dbe 9c3c 773f
00000200: 08a2 02bf cec0 ba3f 9c83 303e 5260 643e
00000210: d1f1 323f 08c3 34bf c43d c7bd 6a86 22c0
00000220: f9f7 05c0 93a3 0fc0 b979 5ebe 2a15 4c3f
00000230: 60ab 1fbf 039e d83e 553b b9bf ef34 49c1
00000240: 01cc f13c 7b46 56be 8b98 fcbf 28dc 2c3f
00000250: 30ed 353d 0fe2 91bf 4057 a6c0 31cc 2cc0
00000260: a600 95be 1232 b8c0 e7f2 e73f be2b 8bc0
00000270: 773e 02bf 3662 9fbf 4f98 6d3c 4f80 bb3c
00000280: 8e9f 4ebe 1106 153f 5d27 a4bf afe7 32c0
00000290: 9f5f a4c0 8355 45bf 0830 d23e c522 14c0
000002a0: 8d4a e83e 7ab1 efbf 1a0c 32bf 7fa1 e23e
000002b0: a0b4 75bf 0fd6 69c0 1df9 a3be 503a 62c0
000002c0: b848 ed3e 3fb9 7d3e 6495 80c0 13d1 843f
000002d0: d963 dcbe bf51 b23e 5a71 3abf 5a02 c6bf
000002e0: 67ed c33d f777 c9be b918 d83f 1a60 edbf
000002f0: fd60 2bc0 0673 85be ab27 003f 5fa6 2a3d
00000300: 8cac c5bc bc2b 9fbf d214 e23f 047e 3cc0
00000310: 4cec 04be d375 c1bf 786f cebf 56ef 40c0
00000320: 9fbf bcbe 275c cc3f 243e eabf d627 553f
00000330: 957d bcbf 90a8 83c0 4681 5e3f 7efb abbe
00000340: 2ead 2abe a4ae 7cbf a742 40c0 30ba 963f
00000350: b9d1 34be 3724 0ebf df3b 9cbf 0f0f 263f
00000360: 3cca 193d 4f8c e5bf f7f9 e0be afb9 393f
00000370: aeaf 933f d634 863e c6c1 cb3f d578 1dbf
00000380: 4f3f ce3e 0ba1 0f3f 84aa 50be 9c63 303f
00000390: 221c 80c0 4daf dbbf d0da 0f3f 8e7f 613e
000003a0: 12a2 473f f722 60bf 2cf0 cfbf ffb7 cebf
000003b0: 6e2f 50c0 41d7 99bf 3f7a 11bf 5324 71c0
000003c0: 3f20 9dbe 2260 a43d 8d02 6ebf 63c9 873f
000003d0: dbb7 a0be 34df a43f 50bd e8c0 a8e0 52bf
000003e0: 3767 c53e 4bf0 55c0 c186 5cc0 43ac e4bf
000003f0: 601a 053f 279a 84bf 2d80 983e b955 a9bf

arith.constant3 f4 [32, 64]
0.86451423 -0.63996357 0.7233413 -0.7526196 -0.35873473 1.3112963 -0.23095213 0.78408664
0.7979327 1.602088 2.079772 -0.78699017 0.20466791 -2.5884848 0.04171456 1.0768235
-1.9442823 -0.051704343 0.012748376 0.23097318 0.52643275 0.078173675 1.7411437 0.4639399
-0.84587663 -1.042388 -0.34030682 -0.2611802 0.6669376 -3.1044784 -0.7119314 0.80020124
0.3501103 1.1802326 1.0452225 -1.2375722 0.9754452 0.37783337 0.62667924 -0.054469682
-2.4699037 -2.1266212 0.80872446 -1.2018546 -0.07359841 -1.5691187 0.56604064 -0.7753309
-0.10250277 -1.4200978 0.97161025 0.74007225 0.27350608 0.4167728 -0.63062084 -2.0380137
1.3801913 -3.4616244 -0.6211848 3.5242677 0.7172054 2.235731 -0.014358845 0.037644897
0.2098301 1.0056722 0.205208 -0.06755469 -0.7287771 -0.26225662 0.038727492 0.835854
0.030768149 0.22161852 -1.5362386 -1.6648266 0.64100415 -1.652912 0.40016392 -1.1121451
3.1671753 1.7336802 0.5695501 1.5451475 -2.516289 -0.18127632 0.7908062 -0.4240949
1.3728249 -0.98033226 0.25007233 -2.7869668 -2.2230718 -1.3614278 -3.108271 -0.13793978
-0.6556189 0.33278072 -1.2955171 -0.8605381 2.9348545 0.7469041 -1.7128818 -0.42117012
0.3675489 0.41327924 0.58483636 -1.6675385 0.40258166 2.5096204 0.59171873 -0.15716761
0.47822398 -7.455954 1.5883598 -1.6465319 1.0124549 -0.66147506 1.4219081 2.8909304
0.49076223 -0.64940345 0.89064914 1.0842224 -0.6626662 0.08782852 0.46622667 -0.37871814
1.5182852 0.7799651 0.35249022 -1.422042 0.0050690235 0.76348525 0.962802 0.26218787
-0.019509275 0.21547784 0.11878353 -2.390114 -0.59831506 -0.1466964 0.65736294 0.46961662
-2.1450427 0.6437254 -1.0056467 -0.6144123 3.1172795 0.7874045 2.0530972 -0.21480395
-0.16655412 0.68202513 -0.766269 1.2864404 0.12525827 -2.8011107 0.61652803 -1.0611322
0.6688806 0.15911248 0.071131796 -0.49421784 -0.24009398 0.8430753 -0.037373785 0.053606596
-1.1449391 -0.8830409 1.6361891 -1.2712493 0.040999632 0.6534076 -0.2019811 -1.1242102
0.38064316 0.85662097 0.71458805 0.46518594 0.023594527 -0.14514369 1.0707355 -0.7058748
0.760454 -3.295993 -0.29521078 -0.09987447 1.7820864 -0.31947342 -0.37556627 1.2417197
0.7191349 0.8477453 -0.46665084 -0.60592735 -1.435093 0.32876232 -0.023406116 0.42140323
0.4618413 0.8566886 0.28478938 0.8653471 0.9824895 0.32998884 -0.57217497 -1.5573691
0.32651374 0.0650385 1.8510942 -0.28844765 -4.562785 -0.23541442 2.288827 -0.84870255
-0.3748729 -0.48982683 0.83630466 1.0429204 -0.8850146 0.71930134 -1.3430294 -0.2531475
0.13167349 0.76695913 1.4384812 -2.2475727 0.6311508 1.8670506 1.1524608 -0.7416131
-0.6825104 1.2261341 2.3046432 0.2772799 0.6633307 -1.5064628 3.0486374 -1.9725035
-0.6073166 -0.88163835 -1.1113695 -0.5338047 1.4729286 -0.43115896 0.57168746 1.3940494
-0.17157844 -1.399031 1.649756 0.24761423 1.4796921 2.046262 0.57051647 0.06983632
00000000: ce50 5d3f a7d4 23bf e52c 393f aeab 40bf
00000010: 14ac b7be 8fd8 a73f b77e 6cbe e7b9 483f
00000020: 5145 4c3f 3811 cd3f fc1a 0540 3078 49bf
00000030: 7794 513e bca9 25c0 e3dc 2a3d 5ad5 893f
00000040: 3ede f8bf efc7 53bd 90de 503c 3c84 6c3e
00000050: 4cc4 063f 8519 a03d ccdd de3f 8889 ed3e
00000060: 5f8b 58bf f86c 85bf b23c aebe 69b9 85be
00000070: 6cbc 2a3f c6af 46c0 2341 36bf fdd9 4c3f
00000080: a841 b33e dd11 973f dac9 853f c468 9ebf
00000090: c7b6 793f 6073 c13e 0d6e 203f 9a1b 5fbd
000000a0: e712 1ec0 901a 08c0 9108 4f3f 5fd6 99bf
000000b0: c3ba 96bd e2d8 c8bf 0ae8 103f 167c 46bf
000000c0: f9ec d1bd c4c5 b5bf 73bb 783f 6075 3d3f
000000d0: fd08 8c3e 3f63 d53e 5e70 21bf d16e 02c0
000000e0: 1caa b03f 418b 5dc0 f805 1fbf 9a8d 6140
000000f0: c69a 373f 3716 0f40 5c41 6bbc 8931 1a3d
00000100: b4dd 563e deb9 803f 0c22 523e 1d5a 8abd
00000110: 2391 3abf 8046 86be b8a0 1e3d 87fa 553f
00000120: 7c0d fc3c f7ef 623e 77a3 c4bf 0a19 d5bf
00000130: d918 243f 9f92 d3bf 49e2 cc3e c55a 8ebf
00000140: 00b3 4a40 3ce9 dd3f 09ce 113f 65c7 c53f
00000150: e10a 21c0 80a0 39be 4672 4a3f f722 d9be
00000160: bab8 af3f 0ef7 7abf 7b09 803e aa5d 32c0
00000170: cf46 0ec0 4443 aebf e9ed 46c0 1640 0dbe
00000180: a4d6 27bf 3c62 aa3e 81d3 a5bf 3a4c 5cbf
00000190: a8d4 3b40 1b35 3f3f b63f dbbf 9ca3 d7be
000001a0: 5f2f bc3e 5699 d33e d6b7 153f e771 d5bf
000001b0: 2f1f ce3e 9f9d 2040 e17a 173f 8cf0 20be
000001c0: c6d9 f43e 2d97 eec0 604f cb3f 8fc1 d2bf
000001d0: 1f98 813f 6e56 29bf 1601 b63f 0105 3940
000001e0: 3045 fb3e 4e3f 26bf 9501 643f cdc7 8a3f
000001f0: 7ea4 29bf 70df b33d 43b5 ee3e 58e7 c1be
00000200: 2b57 c23f cbab 473f 9979 b43e 7905 b6bf
00000210: 0d1a a63b c573 433f 317a 763f 7d3d 863e
00000220: ead1 9fbc 39a6 5c3e c844 f33d a1f7 18c0
00000230: 2d2b 19bf 9537 16be f048 283f 9771 f03e
00000240: 6148 09c0 30cb 243f 08b9 80bf 204a 1dbf
00000250: 8281 4740 5793 493f f265 0340 91f5 5bbe
00000260: 2a8d 2abe 3399 2e3f 352a 44bf 14aa a43f
00000270: b443 003e 6645 33c0 c8d4 1d3f 2ed3 87bf
00000280: c23b 2b3f 62ee 223e 8cad 913d 1f0a fdbe
00000290: 32db 75be c8d3 573f 4115 19bd 9792 5b3d
000002a0: 5d8d 92bf f80e 62bf a56e d13f 4cb8 a2bf
000002b0: 3bef 273d b845 273f 22d4 4ebe 1fe6 8fbf
000002c0: a9e3 c23e 834b 5b3f 3eef 363f da2c ee3e
000002d0: 4f49 c13c 8ca0 14be dc0d 893f 36b4 34bf
000002e0: 1dad 423f 8df1 52c0 de25 97be fc8a ccbd
000002f0: 681b e43f 0592 a3be 394a c0be acf0 9e3f
00000300: 3a19 383f d605 593f dcec eebe 0e1e 1bbf
00000310: 21b1 b7bf 8953 a83e 2fbe bfbc 2ac2 d73e
00000320: 7676 ec3e f24f 5b3f eacf 913e 6387 5d3f
00000330: 6f84 7b3f 4cf4 a83e 0f7a 12bf df57 c7bf
00000340: cf2c a73e e832 853d a8f0 ec3f 69af 93be
00000350: 5602 92c0 7a10 71be 247c 1240 9244 59bf
00000360: 57ef bfbe 95ca fabe 1018 563f 6a7e 853f
00000370: 5190 62bf 2224 383f 63e8 abbf 8d9c 81be
00000380: 6ad5 063e 6f57 443f 2720 b83f 3bd8 0fc0
00000390: 1993 213f 84fb ee3f d683 933f 5bda 3dbf
000003a0: 00b9 2ebf f6f1 9c3f 467f 1340 a2f7 8d3e
000003b0: 0ad0 293f c6d3 c0bf e01c 4340 ff7a fcbf
000003c0: 1a79 1bbf 0db3 61bf 5b41 8ebf 6da7 08bf
000003d0: ed88 bc3f dec0 dcbe 1c5a 123f 3670 b23f
000003e0: 42b2 2fbe 7313 b3bf 342b d33f 968e 7d3e
000003f0: 8d66 bd3f f5f5 0240 5e0d 123f 5806 8f3d

sequential_1/dense_1/MatMul f4 [64, 25]
0.45804903 -0.1268892 0.1371402 -0.7130099 -0.2704818 1.0417969 0.8368334 0.4620042
-1.4345883 0.20213585 0.87252593 0.63265866 1.3153801 -0.25496927 -1.6402518 -0.18555069
0.6676254 -1.2567426 0.58562076 0.17613731 -1.291229 1.4343488 -1.0850388 0.3623723
0.9300665 -0.53741086 -0.27862805 -0.2934394 0.9114152 0.06278769 0.5247543 -0.063711755
0.8926106 0.008536853 1.666798 -1.6977439 0.34470463 -1.640711 0.1385363 -0.6447442
-0.9006709 -0.52522576 0.7914755 -2.273701 -0.26599377 -0.54018235 0.20068459 1.2570351
0.7478347 2.3526626 0.73314446 -0.6148444 1.3641858 -0.31547147 0.5741913 0.39898828
0.91591597 -0.28901592 -1.2431847 -0.5735382 -0.0007211751 -0.83016974 0.38261688 -0.013290602
0.7920486 0.29672307 -0.18104418 0.4162499 -1.9050584 1.0662333 -0.23568487 0.8883006
0.2106385 -0.0024878348 -1.7159172 -0.2122808 -0.46845594 0.1722349 -0.58478445 0.023273088
-1.0428104 -0.28951532 1.8838093 -1.8840643 -0.93154204 0.65873426 0.05976006 -0.033966348
-0.4694551 1.0191915 -1.4210538 -0.08164355 -1.0935824 0.17569865 0.9182328 0.25964475
-0.11332593 0.49991977 0.9598097 -1.2315928 1.0534363 0.015037185 0.16367485 0.15075085
0.50323 -0.66261786 -0.5730282 -0.16770793 -0.944246 0.2910543 0.8224309 0.6202051
0.557186 -1.4725715 -0.6102546 0.86374944 0.83400524 -0.35349986 0.7172944 0.8158138
-0.32583767 -0.9807272 -0.6311083 -0.9411477 -0.36327353 -0.936835 -0.18085986 -0.24953707
-0.3523472 -0.102325134 1.4260461 0.93416685 -0.40511057 -1.0829108 0.58474207 -0.12581585
-0.83682895 -1.0276505 -0.67265195 0.13902844 1.1350014 -0.3675334 -0.8577697 -0.032945402
-0.07116441 2.0975692 -0.41567445 -0.333107 1.5763979 0.058318593 0.32844582 -0.8457094
0.5767508 0.9425153 -0.9174826 0.2234413 -0.0910913 -0.9561928 0.36678803 -0.6218364
0.86505 -1.1796187 -0.51342916 0.003458612 0.06294107 -0.5200413 0.13483632 -0.9235206
1.129671 0.017408853 -0.5171743 0.6180717 -0.20309852 0.37410888 1.1662215 0.05406533
0.85705554 0.48149306 0.16414551 -1.5001457 0.26427037 1.3223748 -0.24830621 -1.1992038
-0.7885552 -0.042604733 -0.31133533 0.9994269 1.5106754 0.58222604 1.0602674 0.7455833
-0.79735214 -0.35852367 -0.3317222 0.6576252 1.6270671 -0.05129069 -0.988775 -0.060848635
0.4042097 -0.69456905 -0.31896287 -0.75404716 1.0379722 1.0341818 -0.0968092 -0.1085197
-1.73324 0.44471964 -0.79609036 -0.74123406 -0.95113224 0.13146137 1.3353082 -0.1913255
-0.1002613 0.11784752 0.034162212 1.1675001 -1.0808104 2.3188303 0.3423937 -1.1232411
-0.69794637 -1.4085493 0.19745848 -0.55897653 0.81947803 -0.40369815 0.4852141 -0.9263146
0.804336 0.61211526 0.40121058 0.51370335 -0.74376893 -0.68022066 -0.72733706 0.69351566
0.16531551 0.78860694 0.8808094 0.6510018 0.065109156 0.16698919 0.9617056 1.0779154
0.58359003 -0.22697999 -0.10873514 0.5347508 -1.7389544 0.2355161 -0.08922383 1.604536
00000000: 6785 ea3e 3eef 01be 7b6e 0c3e d187 36bf
00000010: 977c 8abe 9a59 853f b73a 563f d18b ec3e
00000020: 97a0 b7bf b3fc 4e3e dc5d 5f3f ebf5 213f
00000030: 605e a83f 558b 82be c5f3 d1bf 0001 3ebe
00000040: 80e9 2a3f f1dc a0bf 3eeb 153f 575d 343e
00000050: fe46 a5bf be98 b73f 8de2 8abf dd88 b93e
00000060: d718 6e3f c293 09bf 56a8 8ebe b03d 96be
00000070: 8252 693f d596 803d 4c56 063f 4f7b 82bd
00000080: 2182 643f 28de 0b3c a359 d53f ac4f d9bf
00000090: 207d b03e d102 d2bf 76dc 0d3e f50d 25bf
000000a0: 5e92 66bf 3275 06bf 239e 4a3f 5184 11c0
000000b0: 5630 88be 6449 0abf 4380 4d3e 87e6 a03f
000000c0: 1872 3f3f 0692 1640 5baf 3b3f 7166 1dbf
000000d0: a49d ae3f 7a85 a1be 33fe 123f 3148 cc3e
000000e0: 7879 6a3f e5f9 93be ad20 9fbf 66d3 12bf
000000f0: 3e0d 3dba 0186 54bf 5ce6 c33e d3c0 59bc
00000100: b2c3 4a3f 16ec 973e a563 39be b51e d53e
00000110: f4d8 f3bf 557a 883f 6057 71be ab67 633f
00000120: 9eb1 573e f10a 23bb 2da3 dbbf 2360 59be
00000130: 75d9 efbe 585e 303e 6fb4 15bf 34a7 be3c
00000140: d07a 85bf 5a3b 94be aa20 f13f 0529 f1bf
00000150: 8a79 6ebf cfa2 283f f7c6 743d 4c20 0bbd
00000160: 6b5c f0be de74 823f 17e5 b5bf bc34 a7bd
00000170: 82fa 8bbf 59ea 333e 4e11 6b3f 28f0 843e
00000180: 6d17 e8bd 7cf5 ff3e 17b6 753f d5a4 9dbf
00000190: 00d7 863f 865e 763c 619a 273e 6e5e 1a3e
000001a0: aed3 003f 53a1 29bf fab1 12bf a1bb 2bbe
000001b0: 1bba 71bf 1205 953e d58a 523f c3c5 1e3f
000001c0: bea3 0e3f 397d bcbf a539 1cbf af1e 5d3f
000001d0: 5e81 553f effd b4be 9ba0 373f 2cd9 503f
000001e0: 32d4 a6be f010 7bbf 5090 21bf 0eef 70bf
000001f0: fdfe b9be 6bd4 6fbf 5433 39be a586 7fbe
00000200: da66 b4be d78f d1bd ae88 b63f 8f25 6f3f
00000210: a76a cfbe d29c 8abf a8b1 153f dfd5 00be
00000220: 6c3a 56bf 0d8a 83bf eb32 2cbf 795d 0e3e
00000230: ba47 913f 562d bcbe cc96 5bbf c2f1 06bd
00000240: a5be 91bd 933e 0640 48d3 d4be 008d aabe
00000250: 68c7 c93f 7adf 6e3d 0d2a a83e 6980 58bf
00000260: f1a5 133f af48 713f 24e0 6abf cccd 643e
00000270: 138e babd 0dc9 74bf a4cb bb3e ac30 1fbf
00000280: eb73 5d3f bffd 96bf 1870 03bf e1a9 623b
00000290: 3fe7 803d 6d21 05bf 8812 0a3e d96b 6cbf
000002a0: 0f99 903f 039d 8e3c 8965 04bf f239 1e3f
000002b0: 0ff9 4fbe 338b bf3e bf46 953f 9c73 5d3d
000002c0: fe67 5b3f 4286 f63e c315 283e c604 c0bf
000002d0: 724e 873e 9443 a93f fc43 7ebe 837f 99bf
000002e0: c1de 49bf 4d82 2ebd 5867 9fbe 71da 7f3f
000002f0: d05d c13f c40c 153f d8b6 873f 8cde 3e3f
00000300: 451f 4cbf 6a90 b7be 7ed7 a9be 205a 283f
00000310: bc43 d03f 3016 52bd 5c20 7dbf 6b3c 79bd
00000320: 93f4 ce3e 47cf 31bf 1a4f a3be 3c09 41bf
00000330: 46dc 843f 1260 843f e743 c6bd 943f debd
00000340: cfda ddbf 4bb2 e33e 94cc 4bbf 84c1 3dbf
00000350: 677d 73bf cf9d 063e 61eb aa3f d5ea 43be
00000360: cc55 cdbd 0a5a f13d aded 0b3d a570 953f
00000370: ff57 8abf b767 1440 3a4e af3e 5dc6 8fbf
00000380: 9dac 32bf 584b b4bf 8e32 4a3e 1619 0fbf
00000390: 50c9 513f 86b1 cebe fc6d f83e f422 6dbf
000003a0: f7e8 4d3f 96b3 1c3f 796b cd3e 1082 033f
000003b0: a467 3ebf f122 2ebf c332 3abf 3e8a 313f
000003c0: 7848 293e 25e2 493f ba7c 613f 0ea8 263f
000003d0: f357 853d 37ff 2a3e 5732 763f 22f9 893f
000003e0: 2866 153f 716d 68be 87b0 debd 6ee5 083f
000003f0: 0f96 debf 222b 713e fcba b6bd 7061 cd3f

sequential_1/dense_1/BiasAdd f4 [64]
-1.3000964 -0.017365847 -0.06790093 1.879166 1.7055012 -0.66013414 0.08038339 -2.278303
0.08827331 -2.1375742 0.3009435 1.1180216 -0.76841176 0.20180617 -0.11043664 -0.70988977
-0.4308497 0.009488841 -0.68259645 2.0168033 2.560152 0.5025331 -0.027508903 0.75642455
1.9592497 2.2189898 -0.72468686 0.5325197 0.8232219 2.1133966 0.578752 -0.50504804
-0.07027348 -0.31121582 0.7002115 -1.0770073 1.0733305 -2.0871744 -1.498245 -0.026904408
1.2718197 -1.1366416 1.28144 0.97239834 -0.38171813 1.3504179 -0.3441315 0.9220668
-0.23374285 -0.99223983 0.9140701 1.6107113 -1.3615811 -0.7203223 0.51618296 2.4457343
0.56539196 1.1197562 -0.52476543 -0.32877225 -2.436679 0.7600281 -0.35805684 1.010718
00000000: 8f69 a6bf d242 8ebc a50f 8bbd 8388 f03f
00000010: dd4d da3f 8dfe 28bf 0ca0 a43d b7cf 11c0
00000020: a3c8 b43d 04ce 08c0 4415 9a3e 551b 8f3f
00000030: a2b6 44bf 47a6 4e3e 9b2c e2bd 56bb 35bf
00000040: 5598 dcbe 1577 1b3c a4be 2ebf 4e13 0140
00000050: 88d9 2340 02a6 003f 5a5a e1bc 0aa5 413f
00000060: b2c8 fa3f ee03 0e40 1485 39bf 3653 083f
00000070: acbe 523f e441 0740 1729 143f d44a 01bf
00000080: 8beb 8fbd ae57 9fbe 1041 333f 60db 89bf
00000090: e562 893f 4494 05c0 7ec6 bfbf a266 dcbc
000000a0: fdca a23f 797d 91bf 3a06 a43f 19ef 783f
000000b0: 8f70 c3be 7eda ac3f 0132 b0be 920c 6c3f
000000c0: 495a 6fbe 6e03 7ebf 8000 6a3f ca2b ce3f
000000d0: 4a48 aebf 0b67 38bf 9124 043f e986 1c40
000000e0: 87bd 103f 2c54 8f3f 0757 06bf d654 a8be
000000f0: 8cf2 1bc0 3491 423f 3a53 b7be 355f 813f
